models/pretrained_models/scoop/kitti_v_100_examples/model_e400.tar (torch, 694782 bytes, 81 tensors)

feat_conv1.fc1.weight f4 [32, 6, 1, 1]
0	0xbe13224a	-0.14368549
1	0x3e3b162e	0.1827018
2	0xbe916ca0	-0.28403187
3	0x3e5bd085	0.21466263
4	0x3de0a061	0.1096809
5	0x3ec5daa3	0.3864337
6	0xbe8010d4	-0.2501284
7	0xbeb2e026	-0.34936637
8	0x3e448262	0.19190362
9	0x3e346781	0.17617609
10	0xbe4a456a	-0.19753042
11	0x3e87dc46	0.26535243
12	0xbe5f8e8f	-0.21831726
13	0xbef68b9d	-0.4815339
14	0xbe7ccef7	-0.24688326
15	0x3dc4bd12	0.09606375
16	0x3f39bbf7	0.72552437
17	0xbea287f7	-0.31744358
18	0x3e670ff9	0.22564687
19	0x3da77642	0.08176853
20	0xbe3c7fb0	-0.18408084
21	0xbe09d472	-0.13459948
22	0x3ee11ab0	0.43965673
23	0xbdb50a1f	-0.08839821
24	0x3e83bd91	0.25730565
25	0x3ec03c41	0.3754597
26	0xbe53c1c8	-0.2067939
27	0xbe56c9dd	-0.20975442
28	0x3a9c27fb	0.001191377
29	0x3ecd09d6	0.40046567
30	0x3eafa9be	0.3430919
31	0x3e9c10fc	0.30481708
32	0xbd79968f	-0.0609346
33	0xbeede15d	-0.46461
34	0xbf1e4205	-0.6181949
35	0x3e1edcdb	0.15513937
36	0xbea9e0ff	-0.3317947
37	0xbe0308c2	-0.1279631
38	0x3d9f3a13	0.07774749
39	0x3eec4809	0.46148708
40	0x3e406e05	0.18791969
41	0x3db55090	0.08853257
42	0xbe8515e2	-0.25993258
43	0x3f199fcf	0.60009474
44	0xbd56d8f9	-0.052453015
45	0xbdb487c8	-0.08814961
46	0xbeb6a6f4	-0.3567425
47	0xbe275ef2	-0.16344813
48	0x3ed91c4d	0.42404404
49	0xbe6591c5	-0.22418888
50	0x3e52b771	0.2057779
51	0xbe8a7166	-0.2703964
52	0xbd996b6d	-0.07491193
53	0x3e742398	0.23841703
54	0x3da99c42	0.08281757
55	0xbf130ada	-0.57438433
56	0xbdb418f5	-0.08793823
57	0x3e654215	0.2238849
58	0x3e012d82	0.12615016
59	0x3dadb0b4	0.08480969
60	0x3de69911	0.11259664
61	0xbf32e61e	-0.6988238
62	0xbe49ecf5	-0.19719298
63	0xbe8077a2	-0.25091273
64	0x3ef6b5ae	0.48185486
65	0x3efeebdc	0.4978932
66	0xbea4819a	-0.32130128
67	0x3e546389	0.20741095
68	0xbec0b08a	-0.3763469
69	0x3ed3df07	0.41381094
70	0xbf33e1fc	-0.702667
71	0xbe19adc7	-0.15007697
72	0xbe5f05fa	-0.21779624
73	0xbe87c9fb	-0.26521286
74	0xbe03a02d	-0.12854071
75	0x3eecd0b6	0.46252984
76	0xbd011a7a	-0.03151939
77	0x3e107a61	0.14109184
78	0xbe960115	-0.292977
79	0x3e634b42	0.22196677
80	0xbddc0bc2	-0.1074443
81	0x3ee1bbf8	0.4408872
82	0xbdd2a159	-0.10284681
83	0x3e38704c	0.18011588
84	0xbe711231	-0.23542096
85	0xbf1d3ac1	-0.61417776
86	0xbecad4b6	-0.3961541
87	0x3e1a1fb6	0.1505116
88	0xbd9ab2e0	-0.07553649
89	0xbe8275b6	-0.2548043
90	0xbe0c9fed	-0.13732882
91	0x3cc9eda1	0.024649443
92	0xbe8a5dba	-0.27024633
93	0xbdb25dfa	-0.08709331
94	0xbeb9d499	-0.36295012
95	0x3ec106ca	0.37700492
96	0xbeb73a97	-0.35786888
97	0xbeaa5bbe	-0.3327312
98	0x3ebb41b8	0.36573577
99	0x3cc0890a	0.023502845
100	0x3dc4bbe5	0.096061505
101	0x3d6a8560	0.057256103
102	0xbc8931f2	-0.016747449
103	0x3ebc71a7	0.3680546
104	0xbe99b5d3	-0.30021533
105	0x3e1205b1	0.14259984
106	0xbe44b2be	-0.1920881
107	0x3ee9cf03	0.4566575
108	0xbd0269e0	-0.03183925
109	0xbe4c0cb5	-0.19926722
110	0x3ebfcdac	0.37461603
111	0x3e231b44	0.1592837
112	0xbe7278b2	-0.23678854
113	0xbe8c14ef	-0.2735972
114	0x3eb24bfe	0.34823602
115	0xbe8cafdf	-0.2747793
116	0x3eb1e0e7	0.347419
117	0x3e9a71b5	0.30164877
118	0xbeaf829c	-0.34279335
119	0x3df9cf11	0.12197698
120	0x3e58ccff	0.2117195
121	0x3d1f841e	0.038944356
122	0x3dd2a804	0.10285953
123	0xbda71a23	-0.08159282
124	0xbe94df55	-0.2907664
125	0xbeeeb94e	-0.4662575
126	0x3ec8be40	0.3920765
127	0x3db20d6d	0.08693967
128	0xbeae6af8	-0.34065986
129	0xbebdeb47	-0.37093565
130	0x3cc10319	0.023561047
131	0x3e5a108d	0.21295376
132	0xbe6093d7	-0.21931396
133	0xbe60d459	-0.21956004
134	0xbdd73c5d	-0.1050956
135	0x3becd425	0.007227438
136	0x3f2b6f2a	0.669665
137	0x3eb8cc49	0.36093357
138	0x3ee7c23e	0.45265383
139	0xbd7c30da	-0.061570026
140	0x3de3b619	0.11118717
141	0xbf016910	-0.5055094
142	0x3ee3485a	0.44391137
143	0x3e2d3bdc	0.16917366
144	0x3d991f24	0.07476643
145	0xbe3ada75	-0.18247397
146	0x3e6bbb81	0.23020746
147	0x3b3a5fc9	0.002843844
148	0x3eea374b	0.4574531
149	0xbed65b9b	-0.41866764
150	0x3e0c460f	0.136986
151	0xbef3165f	-0.47478005
152	0x3b534d73	0.0032242208
153	0x3ce0a248	0.027421132
154	0x3e722105	0.23645408
155	0x3dbc25c9	0.091868944
156	0x3e871ee5	0.26390758
157	0xbd8fcac4	-0.07021096
158	0xbea92e6f	-0.3304324
159	0xbda7d346	-0.08194594
160	0xbde79a0c	-0.11308679
161	0xbc1453f7	-0.009053222
162	0x3e22d4a0	0.15901423
163	0x3e50e21f	0.20398758
164	0xbe475106	-0.19464502
165	0x3ea66a36	0.32502908
166	0xbf35a92d	-0.70961267
167	0x3eb6ff77	0.3574178
168	0x3eb7cbe2	0.35897738
169	0xbe8ef5d2	-0.2792192
170	0xbea98f12	-0.33116966
171	0xbee7c37d	-0.45266333
172	0x3dccce3b	0.10000273
173	0x3e4a2217	0.19739567
174	0x3dffb2b1	0.124852546
175	0x3e89e3db	0.26931652
176	0xbeb39594	-0.35075057
177	0xbecbb04f	-0.3978295
178	0x3d5ec139	0.05438349
179	0x3e13fb4b	0.1445133
180	0xbd84b846	-0.0648046
181	0x3f1bc0d0	0.60841084
182	0x3ddc4083	0.10754492
183	0x3e4bec65	0.19914396
184	0xbea864b8	-0.32889342
185	0xbdfb5ba3	-0.12273338
186	0xbeb12519	-0.34598616
187	0x3e649087	0.22320758
188	0x3e8329e8	0.2561791
189	0x3d8c173a	0.068403676
190	0xbebd9a3f	-0.37031743
191	0xbdb6befb	-0.089231454

feat_conv1.bn1.weight f4 [32]
0	0x3f9490ab	1.1606649
1	0x3f7aacbf	0.9791984
2	0x3f7c49d0	0.9855013
3	0x3f7958b0	0.9740095
4	0x3f883d16	1.0643642
5	0x3f8a189e	1.0788763
6	0x3f8d54ac	1.1041465
7	0x3f640bce	0.8908051
8	0x3f68f94c	0.91005397
9	0x3f67e358	0.90581274
10	0x3f8bf02d	1.0932671
11	0x3f7e733a	0.9939457
12	0x3f74c93d	0.95619565
13	0x3f98dc04	1.1942143
14	0x3f803c44	1.0018392
15	0x3f7244ce	0.9463624
16	0x3f67130d	0.90263444
17	0x3f825a65	1.0183836
18	0x3f81dbad	1.0145165
19	0x3f6af65f	0.9178218
20	0x3f739b31	0.9515868
21	0x3f82c8e7	1.021756
22	0x3f824fe5	1.0180632
23	0x3f8b45cb	1.0880674
24	0x3f7f8205	0.9980777
25	0x3f7a4d71	0.97774416
26	0x3f6b399b	0.91884774
27	0x3f815bc6	1.0106132
28	0x3f7d6a2b	0.98990124
29	0x3f8edeab	1.1161703
30	0x3f828e1b	1.0199617
31	0x3f614da4	0.88009095

feat_conv1.bn1.bias f4 [32]
0	0xbdb77980	-0.08958721
1	0xbd8e19df	-0.06938528
2	0xbd44d064	-0.0480503
3	0xbe69e3d2	-0.22840813
4	0xbd294e35	-0.04133435
5	0xbd9d3c10	-0.07677472
6	0x3e6eb64a	0.23311725
7	0x3cc984de	0.024599489
8	0x3e8ea957	0.2786357
9	0x3d3dd6b2	0.046347328
10	0x3d96c57c	0.07361886
11	0xbb0d1965	-0.002153003
12	0x3dbca114	0.09210411
13	0xbd1f8501	-0.0389452
14	0xbc4775c9	-0.012174078
15	0x3dc00b47	0.09377151
16	0x3d61e009	0.055145297
17	0x3e380b0b	0.17972963
18	0xbe6313b3	-0.22175483
19	0x3a2b7018	0.00065398356
20	0x3e073091	0.1320212
21	0xbd1469d4	-0.036233738
22	0xbe7abb49	-0.24485506
23	0x3cef1c02	0.02918816
24	0x3e3dd376	0.18537697
25	0x3d16a447	0.03677776
26	0xbe286e57	-0.16448341
27	0x3e133dc3	0.14379029
28	0xbda8edd5	-0.08248488
29	0xbc76f535	-0.01507311
30	0xbc92528f	-0.017861633
31	0x3bd0685d	0.0063600973

feat_conv1.fc2.weight f4 [32, 32, 1, 1]
0	0x3e345d68	0.17613757
1	0xbdb95ce0	-0.090509176
2	0x3e18795e	0.14890048
3	0xbdeb4786	-0.114882514
4	0xbe14da7a	-0.14536467
5	0x3dd94014	0.10607925
6	0x3d58a139	0.05288813
7	0x3dbee91c	0.09321806
8	0x3c816403	0.01579476
9	0xbde6f984	-0.1127806
10	0x3c89da74	0.0168278
11	0x3acf5e7d	0.0015821006
12	0xbcfbacce	-0.030722048
13	0xbde29586	-0.110636756
14	0x3dc1fc24	0.0947192
15	0x3c7209af	0.014772817
16	0x3c056489	0.008141645
17	0x3d03dc40	0.03219247
18	0x3e894b32	0.26815182
19	0x3bab986e	0.005236677
20	0xbc96221b	-0.01832681
21	0x3c82dbda	0.015973974
22	0x3d814634	0.06312218
23	0x3e260907	0.16214381
24	0x3dea110d	0.114290334
25	0xbde60e19	-0.11233158
26	0xbc5eab99	-0.013590717
27	0xbe0e364e	-0.13887903
28	0xbdbec799	-0.09315414
29	0x3e4f13d9	0.20222415
30	0x3eb29db9	0.34885958
31	0x3dd4ba77	0.10387128
32	0xbd668af3	-0.056284856
33	0x3d338de9	0.043836508
34	0x3d12c14e	0.03582888
35	0x3e3db790	0.18527055
36	0x3e874916	0.26422948
37	0x3ce13776	0.027492266
38	0x3e771e4b	0.2413265
39	0x3cc886ce	0.024478342
40	0xbcae6e98	-0.02129297
41	0xbd8fae89	-0.07015712
42	0x3d3f9bb4	0.04677935
43	0x3e43c54e	0.19118235
44	0x3daee8d5	0.08540503
45	0x3ef1dd5b	0.47239193
46	0x3e095a51	0.13413359
47	0xbe62ccd5	-0.2214845
48	0x3da71211	0.08157743
49	0xbe27ace0	-0.1637454
50	0xbde7716a	-0.11300929
51	0xbd4e42ab	-0.05035655
52	0x3cb1b7a1	0.021694006
53	0x3e49c751	0.1970494
54	0x3e965f20	0.2936945
55	0xbd39242c	-0.04520051
56	0xbdd26668	-0.10273439
57	0x3dd46c9e	0.103722796
58	0xbdd625c2	-0.104564205
59	0xbdb8a94c	-0.09016666
60	0x3d7966bd	0.060888994
61	0x3da4b02b	0.08041414
62	0xbe1e078d	-0.15432568
63	0x3de6b01e	0.112640604
64	0xbe2d065d	-0.16896959
65	0xbe5d3dc6	-0.21605596
66	0xbe37e372	-0.17957857
67	0xbc9234e9	-0.017847495
68	0xbdb3012c	-0.08740458
69	0xbdfb408f	-0.12268173
70	0xbcb42b3a	-0.021993268
71	0x3e0921d9	0.13391818
72	0xbd810650	-0.06300032
73	0xbd8318af	-0.064011924
74	0xbe5a6de5	-0.21330984
75	0x3dff3250	0.12460768
76	0xbd147747	-0.036246564
77	0x3d3aed6b	0.045636576
78	0xbd622bb4	-0.05521746
79	0xbd56827a	-0.052370526
80	0x3d845531	0.064615615
81	0x3e013e7b	0.1262149
82	0xbbc028f4	-0.005864257
83	0xbdb92dd6	-0.09041946
84	0xbe380ccd	-0.17973633
85	0xbe381c59	-0.17979564
86	0xbe2442e2	-0.16041139
87	0xbc3ff265	-0.011715506
88	0xbdcfee54	-0.10152879
89	0xbe830710	-0.25591326
90	0x3da0b7ca	0.07847555
91	0xbd3206e6	-0.04346361
92	0xbe2d2f3b	-0.16912548
93	0x3db9e4f6	0.09076874
94	0x3e196f66	0.14983901
95	0xbbb16284	-0.0054133553
96	0xbdf9e14a	-0.122011736
97	0xbdf418bc	-0.1191878
98	0x3da918e0	0.08256698
99	0xbd2805d2	-0.041021176
100	0x3df95cd9	0.121759124
101	0xbe7f0ab4	-0.24906427
102	0x3ca68559	0.020327257
103	0xbde26656	-0.11054675
104	0xbe036861	-0.12832786
105	0xbdc4b073	-0.096039675
106	0x3d4a8614	0.049444273
107	0xbe8449a3	-0.2583743
108	0xbe3c6bb9	-0.18400468
109	0xbe25c534	-0.16188508
110	0x3d8f3d7e	0.069941506
111	0xbe2a2f4f	-0.1661961
112	0x3e269347	0.1626712
113	0x3df23a19	0.118274875
114	0x3e3e7ee1	0.18603088
115	0x3d09840b	0.03357319
116	0xbd7de79c	-0.061988458
117	0xbe07a631	-0.1324699
118	0xbd53049a	-0.05151806
119	0xbe7c09fa	-0.24613181
120	0x3dde753d	0.10862205
121	0x39d2bd6f	0.0004019546
122	0x3e36238b	0.17786996
123	0xbe307faf	-0.17236207
124	0x3e30fa46	0.17282972
125	0x3d7eeaae	0.062235527
126	0x3d83b17f	0.06430339
127	0x3df0f636	0.11765711
128	0xbe2990a9	-0.1655909
129	0xbd8b9f1c	-0.06817457
130	0xbd70ae7d	-0.058760155
131	0xbe133d43	-0.14378838
132	0x3d5b8ddb	0.05360208
133	0x3d98feda	0.07470484
134	0xbe3044ce	-0.17213747
135	0x3e72a97c	0.23697466
136	0xbca3a987	-0.019978298
137	0xbe4b2f45	-0.1984225
138	0xbdbca5e8	-0.092113316
139	0x3e3c2c4e	0.18376276
140	0x3df2da7b	0.11858078
141	0xbd07ddad	-0.03317039
142	0xbda2feb8	-0.0795874
143	0x3e27ebe2	0.16398576
144	0xbe12a779	-0.14321698
145	0xbd98ff30	-0.07470548
146	0xbd402223	-0.046907555
147	0x3d97fed7	0.07421654
148	0x3e8d6dfe	0.2762298
149	0x3d259124	0.04042162
150	0xbd67514f	-0.056474026
151	0xbd849f67	-0.06475716
152	0x3ad77774	0.0016438798
153	0xbe4c3ab4	-0.19944268
154	0x3e0788af	0.13235734
155	0x3e409314	0.18806106
156	0xbe0f7b75	-0.14011939
157	0xbe59ab7e	-0.21256825
158	0x3dd34862	0.1031654
159	0x3e1ac511	0.15114237
160	0xbc9c80ae	-0.019104328
161	0x3d2a874c	0.041632935
162	0x3d7ed0f1	0.06221098
163	0xbd3a2f5d	-0.045455325
164	0xbe894bc6	-0.26815623
165	0xbc73d204	-0.014881615
166	0x3e895262	0.26820666
167	0x3cfc3fdb	0.030792167
168	0xbde98142	-0.11401607
169	0x3d706a5b	0.05869518
170	0xbe69b5e9	-0.228233
171	0xbd203614	-0.039114073
172	0xbd405d68	-0.04696408
173	0x3d13b3ad	0.036060024
174	0x3e23cc43	0.15995888
175	0xbd9e8192	-0.07739557
176	0x3e55052f	0.20802759
177	0x3d964f3d	0.07339332
178	0x3d5502d7	0.05200466
179	0x3e0c2b2c	0.13688344
180	0xbdbc894f	-0.09205877
181	0xbbe68864	-0.007035302
182	0xbbc08496	-0.0058751805
183	0x3dbb1a40	0.09135866
184	0x3dd9d997	0.10637205
185	0x3d7661a8	0.060151726
186	0x3dae9b36	0.08525698
187	0xbe3ffe8c	-0.18749446
188	0x3da8c8b9	0.0824141
189	0xbc2d4503	-0.010575536
190	0xbe3ea748	-0.186185
191	0xbae11384	-0.0017171954
192	0x3f10616a	0.5639864
193	0x3d59c26b	0.053163927
194	0xbcb4546b	-0.02201291
195	0xbdae8bd6	-0.08522765
196	0x3d837205	0.06418232
197	0x3e21fce4	0.15819126
198	0x3908e0fd	0.00013053785
199	0xbca68440	-0.020326734
200	0xbb2540f7	-0.0025215724
201	0xbd5d4b7a	-0.05402706
202	0x3e2429a0	0.16031504
203	0x3e3d599d	0.18491216
204	0x3da06de5	0.07833461
205	0x3e047938	0.12936866
206	0x3e17c04e	0.14819452
207	0x3ec064c8	0.3757689
208	0xbdd712a2	-0.10501601
209	0x3da0eaf2	0.07857312
210	0x3e2e3bce	0.17015001
211	0x3d91bbd2	0.07115902
212	0xbb53701a	-0.0032262863
213	0x3e174add	0.14774652
214	0x3e21fa76	0.158182
215	0xbd838699	-0.06422157
216	0x3dc3e634	0.09565392
217	0xbdb3612f	-0.08758771
218	0x3cf1d1c5	0.029518971
219	0x3d72be38	0.059263438
220	0x3da76807	0.081741385
221	0xbe0d965c	-0.13826889
222	0xbc919e43	-0.01777566
223	0xbd4e79ce	-0.05040913
224	0x3d58403e	0.05279564
225	0x3e143f91	0.14477374
226	0x3cc80c6f	0.024419991
227	0x3d83577e	0.06413172
228	0x3e51d5a5	0.20491655
229	0xbd495798	-0.0491558
230	0xbc4d1c0e	-0.012518896
231	0xbe16c3ac	-0.1472308
232	0xbcfa7499	-0.030573176
233	0x3d1ba883	0.038002502
234	0xbca6b74c	-0.020351075
235	0xbc5d3bf4	-0.0135030635
236	0xbe2bd571	-0.1678064
237	0xbea9b1f3	-0.33143577
238	0xbda3e536	-0.08002703
239	0x3d80e524	0.06293705
240	0x3ddd9f2f	0.108213775
241	0xbe43a55a	-0.19106045
242	0x3e38ed1d	0.18059202
243	0x3d4486e8	0.04798022
244	0x3d4ac85a	0.049507476
245	0x3e652aca	0.22379604
246	0xbe3496b2	-0.1763561
247	0x3c120cfc	0.0089142285
248	0xbdabc9a0	-0.08388066
249	0xbe3fb00b	-0.18719499
250	0x3d5977f3	0.053092908
251	0x3e0b950c	0.13631076
252	0x3e970d75	0.29502454
253	0x3d85a299	0.06525154
254	0xbddd4942	-0.108049884
255	0xbd4020d5	-0.04690631

feat_conv1.bn2.weight f4 [32]
0	0x3f85c533	1.0450805
1	0x3f896e98	1.0736876
2	0x3f7d5261	0.98953825
3	0x3f77a31c	0.9673326
4	0x3f5e9622	0.86947834
5	0x3f643561	0.8914395
6	0x3f80eb0b	1.007173
7	0x3f7355e6	0.95052946
8	0x3f7ad95b	0.9798791
9	0x3f74eaf7	0.9567103
10	0x3f7e51c7	0.9934353
11	0x3f81079d	1.0080448
12	0x3f7ce7b1	0.98791033
13	0x3f86bd49	1.0526515
14	0x3f8fc519	1.1232024
15	0x3f901f35	1.1259524
16	0x3f87e003	1.0615238
17	0x3f7180fd	0.94337445
18	0x3f8454df	1.0338401
19	0x3f83c8bc	1.0295634
20	0x3f653453	0.89532965
21	0x3f7c0388	0.9844289
22	0x3f846c2f	1.0345515
23	0x3f736583	0.9507677
24	0x3f6fc664	0.93662095
25	0x3f79fe0d	0.97653276
26	0x3f81cdbe	1.0140913
27	0x3f89b4d3	1.0758308
28	0x3f86b73e	1.0524671
29	0x3f7fcdb3	0.9992325
30	0x3f88d99d	1.069141
31	0x3f7a6576	0.9781107

feat_conv1.bn2.bias f4 [32]
0	0xbd4d157b	-0.050069313
1	0xbdacbff8	-0.08435053
2	0xbd4bec0e	-0.049785666
3	0x3d51c714	0.051215246
4	0x3c4a1fc1	0.012336672
5	0x3c7a8ec7	0.01529283
6	0xbde230b9	-0.11044449
7	0x3c95eb65	0.018300721
8	0xbcc32d6f	-0.023825375
9	0x3a08312f	0.0005195317
10	0x3d45dea7	0.04830804
11	0x3dddb626	0.10825758
12	0x3b8246fb	0.0039757467
13	0x3e89244c	0.26785505
14	0x3de2b6ed	0.110700466
15	0xbbd44600	-0.006478071
16	0xbd04fda0	-0.03246844
17	0x3c691564	0.014226291
18	0x3cd56119	0.026047276
19	0xbdab94d3	-0.08377995
20	0x3e082750	0.13296247
21	0x3dcb71f9	0.09933848
22	0x3d20821b	0.03918658
23	0xbdf140f2	-0.117799655
24	0x3da9016c	0.08252224
25	0xbd0cce3f	-0.03437638
26	0x3d380f87	0.044936683
27	0x3d9dc8d0	0.077043176
28	0x3e5b4223	0.21411948
29	0xbd1f4050	-0.038879693
30	0xbd5160ab	-0.05111758
31	0x3e0b62da	0.13611928

feat_conv1.fc3.weight f4 [32, 32, 1, 1]
0	0xbde3cc3a	-0.111229375
1	0x3e486f74	0.19573766
2	0xbccc8169	-0.024964051
3	0xbdc9f8b2	-0.09861888
4	0x3cba0dfc	0.022711746
5	0x3e22544c	0.15852469
6	0xbdeb39ef	-0.11485659
7	0xbe60a01e	-0.2193608
8	0xbe3aaaff	-0.18229292
9	0xbe030583	-0.12795071
10	0x3dcce026	0.100036904
11	0xbe6b4866	-0.22976837
12	0xbe13c448	-0.14430344
13	0xbe879f08	-0.2648852
14	0xbd328db1	-0.04359216
15	0x3da85b28	0.08220512
16	0x3c96086b	0.01831456
17	0xbe3bbbeb	-0.18333404
18	0x3e56836d	0.20948572
19	0xbe5ba9bb	-0.21451466
20	0x3de8d092	0.11367907
21	0x3e527c74	0.20555288
22	0xbe0aa7b3	-0.13540535
23	0xbd1408ce	-0.03614121
24	0x3dbf3d6b	0.093378864
25	0x3e10dad9	0.14145984
26	0x3d435c22	0.047695287
27	0xbe73f271	-0.23822953
28	0x3dcff000	0.10153198
29	0xbd17fbc1	-0.037105326
30	0xbe1bdafa	-0.15220252
31	0xbd4e7e0e	-0.050413184
32	0x3c12d50d	0.008961928
33	0x3bab9676	0.005236442
34	0xbc7bf6e6	-0.015378689
35	0x3dba4b3c	0.09096381
36	0xbdf1c861	-0.11805797
37	0xbccfd306	-0.025369179
38	0x3df643e5	0.120246686
39	0x3d9f21bd	0.07770107
40	0x3db9b68d	0.09068022
41	0xbd43dbc2	-0.047817
42	0xbdd1964f	-0.10233747
43	0x3e460d4c	0.1934101
44	0xbd2b9422	-0.041889317
45	0xbe4e95c2	-0.20174316
46	0x3dbb3e31	0.091427214
47	0xbea460ad	-0.32105008
48	0x3db98be5	0.09059886
49	0xbda5a22e	-0.08087574
50	0xbe8884d5	-0.26663843
51	0xbdc9f786	-0.098616645
52	0x3cee4677	0.029086335
53	0xbe5010b9	-0.20318879
54	0x3e2ea02b	0.17053287
55	0x3d1c682b	0.03818528
56	0xbe52c88f	-0.2058432
57	0xbd580bc1	-0.052745584
58	0x3df2c3fa	0.11853786
59	0xbd8b6290	-0.06805909
60	0x3e154ec6	0.14580831
61	0xbe3e1436	-0.18562397
62	0xbe0cbb93	-0.13743429
63	0x3adb6692	0.0016738942
64	0x3d93342d	0.07187686
65	0xbde4b0b2	-0.111665145
66	0xbe017c80	-0.12645149
67	0x3d6eec0a	0.058330573
68	0xbcab8b9d	-0.020940596
69	0x3df58ef3	0.11990156
70	0xbc94c58b	-0.018160602
71	0xbd481d12	-0.04885585
72	0xbe1aef5f	-0.15130375
73	0xbe035226	-0.12824306
74	0xbe3b31e8	-0.18280756
75	0xbea8abf6	-0.32943696
76	0x3dac57dd	0.08415196
77	0x3e5a2a0b	0.213051
78	0x3e2e139c	0.16999668
79	0xbcac29a0	-0.021015942
80	0x3e3294e0	0.17439604
81	0x3e0225cd	0.12709732
82	0x3dfc9318	0.123327434
83	0x3dfffc62	0.1249931
84	0x3e1d4e8f	0.15361999
85	0xbb7a276d	-0.0038170472
86	0xbd80c3db	-0.062873565
87	0x3dc458ec	0.09587273
88	0x3e410557	0.18849693
89	0xbe118625	-0.14211328
90	0xbe9c29f9	-0.30500773
91	0x3db24a4f	0.087055795
92	0xbe2bd7ae	-0.16781494
93	0x3e0f7ec8	0.14013207
94	0x3d00be17	0.031431284
95	0xbe599e10	-0.21251702
96	0xbc97a817	-0.018512769
97	0x3dba8568	0.091074765
98	0xbe38ef73	-0.18060093
99	0xbe06619e	-0.13123176
100	0x3dd3f5e2	0.10349633
101	0x3e1a9038	0.15094078
102	0x3e921d95	0.28538194
103	0xbe077b14	-0.13230544
104	0xbdc3bedb	-0.09557887
105	0xbdc8e38d	-0.09809027
106	0xbe088604	-0.13332373
107	0xbcc4381f	-0.023952542
108	0x3d701163	0.05861033
109	0xbdcae597	-0.09907072
110	0x3df006b7	0.11720031
111	0xbca8ba28	-0.020596579
112	0xbe887eea	-0.26659328
113	0x3e3714ab	0.17878978
114	0xbdde7fd5	-0.10864226
115	0x3dcedd2d	0.1010078
116	0x3d127060	0.0357517
117	0xbe8e0fcc	-0.27746427
118	0xbdb1a39f	-0.08673786
119	0xbc30b38f	-0.010784998
120	0x3d80fd50	0.062983155
121	0x3e2e429c	0.17017597
122	0x3de85cb7	0.11345809
123	0xbe623676	-0.22091088
124	0xbd2794c6	-0.040913366
125	0x3c103719	0.008802199
126	0x3e8a40b5	0.27002493
127	0x3e020f92	0.12701252
128	0xbe89901a	-0.26867753
129	0xbde97907	-0.11400037
130	0xbc5c7c92	-0.013457434
131	0xbd14eef4	-0.036360696
132	0xbdce8772	-0.10084428
133	0x3dc5eba9	0.09664089
134	0xbd1655d8	-0.03670296
135	0xbc4c788c	-0.0124799125
136	0xba8cb0d7	-0.0010733855
137	0x3d1b6950	0.03794223
138	0xbe0cd5fb	-0.13753502
139	0xbc5d3553	-0.013501483
140	0x3c9d0e8d	0.019171977
141	0xbaf7064a	-0.0018846479
142	0x3de92eda	0.11385889
143	0xbe071e22	-0.13195089
144	0x3c486d35	0.012233068
145	0x3d2a4b33	0.04157562
146	0xbe3d61b0	-0.18494296
147	0x3e13ed31	0.1444595
148	0xbe36f903	-0.17868428
149	0x3e6e0c79	0.23246945
150	0xbc8ed605	-0.017436037
151	0x39db44b0	0.0004182211
152	0xbe8defc8	-0.27722
153	0xbcf45e60	-0.029830158
154	0xbe1ebd76	-0.15501961
155	0x3d0b8ec6	0.034071706
156	0xbe437ab6	-0.1908978
157	0xbe622b26	-0.22086772
158	0x3e508846	0.20364484
159	0xbe0b81c5	-0.13623722
160	0xbdad8de5	-0.0847433
161	0x3e118dbe	0.14214227
162	0x3da96846	0.08271842
163	0x3e11f876	0.14254937
164	0x3e0c0a45	0.13675793
165	0x3d8aee2e	0.067837104
166	0xbe393923	-0.18088202
167	0xbe55934e	-0.20856974
168	0xbd9d5f5c	-0.07684204
169	0xbdba8f0a	-0.09109314
170	0xbdd96034	-0.106140524
171	0x3cd7b95c	0.026333503
172	0xbca57b4d	-0.020200396
173	0xbec1d3b9	-0.37856844
174	0x3e4fade8	0.20281184
175	0xbe351174	-0.17682439
176	0xbcf1cc44	-0.029516347
177	0x3d9d391f	0.076769106
178	0x3dae270e	0.08503543
179	0x3e525ad1	0.20542456
180	0x3dd6276c	0.10456738
181	0xbe01a734	-0.12661439
182	0xbd8f234c	-0.06989154
183	0xbe1c595c	-0.15268463
184	0xbd969bc6	-0.0735393
185	0x3e579b7c	0.21055406
186	0x3d0002a9	0.031252537
187	0x3dfcce04	0.12343982
188	0x3e111cca	0.14171138
189	0xbe44da33	-0.19223861
190	0xbe86351c	-0.26212394
191	0x3e22d61a	0.15901986
192	0x3e40cd62	0.18828347
193	0x3e2852e9	0.16437878
194	0xbe0c5b75	-0.13706763
195	0xbcb38f2d	-0.021918857
196	0x3d16745c	0.036732063
197	0x3db8332a	0.08994134
198	0x3d1d1673	0.038351487
199	0x3d7a1d26	0.061062954
200	0xbe807d7c	-0.25095737
201	0x3d268b1f	0.04066002
202	0x3ddd3524	0.108011514
203	0xbdb1a84f	-0.086746804
204	0x3cb9411b	0.022614053
205	0x3e353b6c	0.17698449
206	0x3d9918c1	0.074754246
207	0xbe6855e1	-0.2268901
208	0x3de3b7e2	0.11119057
209	0x3e4ad7f1	0.19808938
210	0x3e77c910	0.24197793
211	0xbd06a6c8	-0.0328739
212	0x3e22f10a	0.15912262
213	0x3d805f60	0.06268191
214	0x3e33033b	0.17481701
215	0x3daa0048	0.08300835
216	0x3d8f8dec	0.07009491
217	0x3d7c9d98	0.06167373
218	0x3d8b6f88	0.06808382
219	0x3dde1c0a	0.10845192
220	0x3cc56a3c	0.024098508
221	0xbe1277d2	-0.1430352
222	0x3e2ef8cf	0.170871
223	0xbcda332a	-0.026635725
224	0x3de88994	0.11354366
225	0xbe0693d7	-0.13142334
226	0xbd655b88	-0.055995494
227	0xbcc73616	-0.024317782
228	0xbe44e744	-0.19228846
229	0x3d2b48cf	0.041817483
230	0xbe29c8dd	-0.1658053
231	0xbda12d28	-0.07869941
232	0xbd4897ed	-0.048973013
233	0xbdc116a6	-0.09428148
234	0xbd779e44	-0.06045367
235	0xbd5d3d1f	-0.054013368
236	0x3e2ffef4	0.171871
237	0xbe5f5869	-0.2181107
238	0xbccef91b	-0.025265267
239	0x3de45ad6	0.11150138
240	0xbe040695	-0.12893136
241	0xbe495bc7	-0.19663917
242	0xbd09d706	-0.033652328
243	0xbe7c0741	-0.24612142
244	0x3db04877	0.086075716
245	0x3db858f2	0.0900134
246	0xbd0b533e	-0.034014933
247	0x3d0706a8	0.032965332
248	0x3d91bdc8	0.07116276
249	0x3d640f11	0.05567843
250	0xbe5f11c2	-0.21784118
251	0xbe0a8a50	-0.13529325
252	0xbe5db98a	-0.21652809
253	0xbd863728	-0.06553489
254	0x3e74e2d2	0.2391465
255	0xbcdf6f3b	-0.027274719

feat_conv1.bn3.weight f4 [32]
0	0x3f3d0387	0.7383351
1	0x3f5eaf36	0.869861
2	0x3f4b79c3	0.7948267
3	0x3f6c80c7	0.92384
4	0x3f63dc89	0.89008385
5	0x3f6f89cc	0.93569636
6	0x3f721bbb	0.94573563
7	0x3f548735	0.8301881
8	0x3f55cedb	0.8351876
9	0x3f573354	0.84062696
10	0x3f6a96ac	0.9163616
11	0x3f589f24	0.8461783
12	0x3f58e4c5	0.84724075
13	0x3f606766	0.87657773
14	0x3f5f9f34	0.873523
15	0x3f73896a	0.9513155
16	0x3f679b01	0.9047089
17	0x3f601db8	0.8754535
18	0x3f526c47	0.8219647
19	0x3f5a035c	0.85161376
20	0x3f5143a6	0.8174385
21	0x3f720b92	0.94548905
22	0x3f72e988	0.9488759
23	0x3f365c3d	0.71234494
24	0x3f559894	0.8343594
25	0x3f644b49	0.89177376
26	0x3f48c54c	0.7842605
27	0x3f65fb90	0.8983698
28	0x3f635053	0.8879444
29	0x3f8398ac	1.0280967
30	0x3f73c5de	0.95223796
31	0x3f64ec01	0.89422613

feat_conv1.bn3.bias f4 [32]
0	0x3d18a5b7	0.037267413
1	0xbd2b1dde	-0.04177653
2	0xbe61bf4d	-0.22045632
3	0x3b763b92	0.0037572128
4	0xbe0733dc	-0.13203377
5	0x3daf3649	0.08555276
6	0xbe7a59e8	-0.24448359
7	0xbe081b46	-0.13291654
8	0xbcc243d4	-0.023713984
9	0x3dbcd179	0.09219641
10	0xbd92b273	-0.07162943
11	0x3d6f2a3b	0.058389883
12	0xbde03564	-0.109476835
13	0xbe2c76be	-0.16842172
14	0x3da2487f	0.07923984
15	0xbb9c02cd	-0.004761076
16	0x3e4a15e5	0.19734915
17	0xbd236f1f	-0.039900895
18	0x3e8c6ad2	0.27425247
19	0x3daa8fcc	0.08328208
20	0xbe6ec2bf	-0.23316477
21	0x3e171d26	0.14757213
22	0x38186fb0	3.634364e-05
23	0x3e3c9d83	0.18419461
24	0xbd84c4c2	-0.06482841
25	0x3da8483b	0.08216902
26	0x3df7de0a	0.121028975
27	0x3d7e5ff1	0.062103216
28	0xbc9a49a1	-0.018833937
29	0xbe039fec	-0.12853974
30	0x3da05106	0.07827954
31	0x3e8b858e	0.27250332

feat_conv2.fc1.weight f4 [64, 35, 1, 1]
0	0xbb830b45	-0.003999146
1	0x3e31aab5	0.17350276
2	0xbe249cb3	-0.16075401
3	0xbdab1bc5	-0.08354906
4	0x3d7f05e8	0.062261492
5	0xbe83067c	-0.25590885
6	0xbdb0b207	-0.08627706
7	0xbc98167b	-0.018565407
8	0xbd9bc041	-0.07605029
9	0xbb07463c	-0.0020641228
10	0x3e30bf10	0.17260385
11	0xbe08621d	-0.13318677
12	0xbd8894a0	-0.06668973
13	0xbdf27759	-0.1183917
14	0x3dd1792b	0.10228189
15	0xbe3b68d6	-0.1830171
16	0x3d58e5ad	0.05295341
17	0xbdab6969	-0.08369715
18	0xbe51ddbb	-0.2049474
19	0xbdd03668	-0.10166627
20	0x3d809fd1	0.062804826
21	0x3e30b27d	0.17255588
22	0x3d49f83e	0.049309008
23	0xbd780fed	-0.060562063
24	0xbe0da7c5	-0.1383353
25	0x3d0e9eac	0.03481929
26	0xbdc36d5f	-0.09542345
27	0x3e47b607	0.19503032
28	0x3dadf8bb	0.08494707
29	0xbcc99023	-0.024604863
30	0x3e13a941	0.14420034
31	0xbca16c06	-0.01970483
32	0xbca03974	-0.019558646
33	0x3e80a48a	0.25125533
34	0xbda45298	-0.08023566
35	0xbc5e9273	-0.013584721
36	0x3e2bc149	0.16772951
37	0xba85d30d	-0.0010209993
38	0x3ce5b467	0.028040124
39	0x3c55c81c	0.013048198
40	0xbcca75a2	-0.024714295
41	0x3d491388	0.049090892
42	0x3e2f90bb	0.17145054
43	0xbd98530e	-0.074377164
44	0x3d5d39b2	0.0540101
45	0xbe0f26b1	-0.13979603
46	0x3df0e055	0.11761538
47	0xbd3c9686	-0.046041988
48	0x3d39d0bc	0.04536508
49	0xbc57889b	-0.013155128
50	0xbc1c755c	-0.009549465
51	0xbe2f36d8	-0.17110765
52	0xbd821e56	-0.06353442
53	0x3db30320	0.087408304
54	0xbe76ebf5	-0.24113448
55	0x3d743ddb	0.059629302
56	0xbdfd33fb	-0.1236343
57	0x3e0b28af	0.13589738
58	0xbd8613b5	-0.065467276
59	0x3e03b835	0.12863238
60	0xbdb85dde	-0.09002279
61	0x3da4b65e	0.08042596
62	0x3dba4f57	0.09097164
63	0xbdb36783	-0.08759978
64	0x3e233b80	0.15940666
65	0x3d03439d	0.032046903
66	0x3d4a1369	0.049334917
67	0xbe4658b9	-0.19369783
68	0x3ee25abd	0.44209853
69	0xbc54afec	-0.012981396
70	0xbd122f9e	-0.035689943
71	0x3d0eb7f0	0.034843385
72	0xbdedf05b	-0.1161811
73	0x3d0c6732	0.034278102
74	0xbd397670	-0.045278966
75	0x3d905f9d	0.07049487
76	0x3c803c4d	0.015653754
77	0xbd2a4f55	-0.041579563
78	0xbb8979fe	-0.004195451
79	0xbd6d7a8f	-0.05797821
80	0xbbfdbac2	-0.0077432105
81	0x3d875912	0.06608786
82	0x3dc7e089	0.097596236
83	0xbdcd80ff	-0.1003437
84	0xbe63dd08	-0.22252285
85	0x3e2e95fa	0.17049399
86	0xbd3bc354	-0.045840576
87	0x3c489bec	0.012244206
88	0x3d9123ac	0.07086882
89	0xbda5f322	-0.081030145
90	0xbdb5def4	-0.088804156
91	0x3dda2e9d	0.10653422
92	0x3d8780a7	0.06616335
93	0xbc902e56	-0.01760022
94	0x3d4720aa	0.048615135
95	0xbcca5b8b	-0.024701854
96	0x3d793999	0.060845945
97	0xbd5d43fa	-0.054019906
98	0xbe37c3d4	-0.17945796
99	0xbbed92fe	-0.007250189
100	0x3d003307	0.031298663
101	0x3ce684e2	0.028139535
102	0xbf0ae40d	-0.5425423
103	0x3e4a49d0	0.1975472
104	0x3e576c92	0.2103751
105	0x3e61089f	0.21975945
106	0xbe0fac06	-0.14030465
107	0x3e3515e8	0.17684138
108	0x3b686959	0.0035463183
109	0xbcc161bf	-0.02360618
110	0x3d2eacf6	0.042645417
111	0x3d6c7bdd	0.057735313
112	0x3cd85cd3	0.02641145
113	0x3dd9639e	0.106147036
114	0x3c60abe9	0.013712862
115	0xbd84cee8	-0.06484777
116	0xbd3af08d	-0.045639563
117	0xbdf56190	-0.11981499
118	0xbd9dfccb	-0.07714232
119	0xbdc6d8dd	-0.09709332
120	0x3dcf329a	0.10117073
121	0x3d90036f	0.07031905
122	0xbc5b9cfa	-0.013404125
123	0x3e122ae2	0.14274171
124	0x3da479fa	0.08031078
125	0x3d71e412	0.059055395
126	0x3eb0e4bb	0.34549507
127	0xbd86d500	-0.06583595
128	0x3da3eb26	0.080038354
129	0x3d953ae5	0.07286624
130	0x3df791a1	0.120883234
131	0x3d5338e4	0.051567927
132	0xbcd1d695	-0.025615016
133	0xbe27760c	-0.16353625
134	0xbd4f9272	-0.05067677
135	0x3d4b9e58	0.049711555
136	0xbd6aa27b	-0.05728386
137	0x3dacf69f	0.08445477
138	0xbdc537c2	-0.096297756
139	0xbe6cb542	-0.2311602
140	0xbe2d985d	-0.16952653
141	0x3cb4b970	0.02206108
142	0x3e02e9a6	0.12784442
143	0x3e29ddd6	0.1658853
144	0xbd2d8143	-0.0423596
145	0xbde6b466	-0.11264877
146	0x3e6a2348	0.22865021
147	0x3da18517	0.07886713
148	0x3e63853b	0.22218792
149	0x3def3ea9	0.11681873
150	0xbe2f7ca7	-0.17137395
151	0x3d35cd40	0.044385195
152	0x3bab1938	0.005221512
153	0x3dc92be4	0.098228246
154	0xbe3f6dff	-0.18694304
155	0xbde01265	-0.109410085
156	0x3e09c04a	0.13452259
157	0x3e170d30	0.14751124
158	0xbddd1b33	-0.107962035
159	0xbcee955d	-0.029123956
160	0xbc64c392	-0.013962643
161	0x3dbe9544	0.09305814
162	0xbdb6f153	-0.08932748
163	0xbc915734	-0.017741777
164	0x3e4add49	0.19810976
165	0xbe34f8a3	-0.17672972
166	0xbc6ddf2b	-0.014518539
167	0xbe13fddf	-0.14452313
168	0xbccb4388	-0.024812475
169	0x3d28b8b8	0.041191787
170	0x3db623b5	0.08893529
171	0xbe3b4de3	-0.1829143
172	0xbcbef6d5	-0.023311058
173	0x3e5ab11c	0.21356624
174	0xbddf5425	-0.10904721
175	0xbd820ea5	-0.063504495
176	0xbd42e7de	-0.047584407
177	0x3cffee83	0.031241661
178	0xbdfe42e2	-0.12415101
179	0xbdc7632e	-0.09735714
180	0xbde411d1	-0.11136211
181	0x3ce8031a	0.028321791
182	0xbd24703d	-0.0401461
183	0xbd6931a3	-0.056932103
184	0x3d93843b	0.07202955
185	0xbb7bfc43	-0.003844992
186	0x3a83d362	0.0010057504
187	0x3d88b9a5	0.06676034
188	0xbdaa083e	-0.08302353
189	0x3d49eebe	0.049299948
190	0x3dd11f5d	0.1021106
191	0x3da6d676	0.08146374
192	0x3c744d5b	0.014911021
193	0xbdc31d87	-0.09527116
194	0xbd9e4967	-0.07728844
195	0x3ca3806f	0.019958703
196	0x3d4b808a	0.04968313
197	0xbcc88184	-0.02447582
198	0xbced20b2	-0.028946254
199	0xbc0eb149	-0.00870926
200	0xbe0c4e93	-0.13701849
201	0xbd16a951	-0.036782566
202	0x3d7f8097	0.062378492
203	0xbca17f89	-0.019714134
204	0x3d2c8875	0.042122323
205	0x3d6f2d8b	0.058393043
206	0xbcdab402	-0.026697163
207	0x3e402668	0.18764651
208	0xbf617926	-0.8807548
209	0x3e292d6f	0.16521238
210	0xbda6d756	-0.08146541
211	0xbdcf7edf	-0.101316206
212	0x3c9d59af	0.019207804
213	0x3e28342b	0.1642615
214	0x3cecf8fd	0.02892732
215	0x3d2004aa	0.039066948
216	0x3cedb8e5	0.029018829
217	0x3db88b15	0.09010903
218	0xbe2036b8	-0.15645874
219	0xbde8fa74	-0.11375895
220	0x3e730a09	0.23734297
221	0xbdd16705	-0.102247275
222	0xbe026976	-0.12735543
223	0xbd9993e5	-0.07498912
224	0xbb2e57db	-0.002660266
225	0xbdf529df	-0.11970877
226	0xbd867a30	-0.06566274
227	0x3d386ff9	0.04502866
228	0xbcaf61e7	-0.021408988
229	0x3d955a35	0.07292596
230	0x3e48d65e	0.19613025
231	0x3dce5f96	0.10076825
232	0x3dd1eab1	0.10249842
233	0x3cf3565d	0.029704267
234	0x3da5ae76	0.080899164
235	0xbbe5a82f	-0.0070085744
236	0x3d575025	0.052566666
237	0x3e2a2613	0.16616087
238	0x3c0d95b0	0.008641645
239	0xbdb234f6	-0.08701508
240	0x3e0d9cab	0.13829295
241	0xbdd3c586	-0.10340409
242	0xbde5d234	-0.11221734
243	0xbee3c69d	-0.44487467
244	0x3e96ce05	0.29454055
245	0x3ced685e	0.02898043
246	0xbc9c369b	-0.019069007
247	0xbe1e6859	-0.15469493
248	0x3dae6436	0.085152075
249	0xbe0ccb83	-0.13749509
250	0xbe8b3997	-0.27192375
251	0xbdaf1961	-0.085497625
252	0xbcb330ce	-0.021873858
253	0xbe0ab9ee	-0.13547489
254	0x3e43efcd	0.19134445
255	0x3dab4036	0.08361857

feat_conv2.bn1.weight f4 [64]
0	0x3f6e0a05	0.9298404
1	0x3f67b7ab	0.9051463
2	0x3fa67109	1.3003246
3	0x3f7857c3	0.97008914
4	0x3f689aea	0.9086138
5	0x3f81f41d	1.0152622
6	0x3f71004e	0.9414109
7	0x3f7442eb	0.9541461
8	0x3f8bd8eb	1.0925573
9	0x3f858a31	1.0432798
10	0x3f6fe8fa	0.9371487
11	0x3f8c9da6	1.098561
12	0x3f743d60	0.9540615
13	0x3f7240c1	0.94630057
14	0x3f6f2975	0.93422633
15	0x3f7d5034	0.98950505
16	0x3f826184	1.018601
17	0x3f8b3a0d	1.0877091
18	0x3f7fb712	0.9988872
19	0x3f7957cd	0.973996
20	0x3f675f23	0.9037954
21	0x3f7bd853	0.9837696
22	0x3f7ead96	0.9948362
23	0x3f6ba087	0.9204182
24	0x3f8af552	1.0856116
25	0x3f635118	0.88795614
26	0x3f90e8ec	1.1321082
27	0x3f8b2218	1.086978
28	0x3f854fc2	1.0414965
29	0x3f7f5093	0.9973232
30	0x3f78c8b6	0.9718126
31	0x3f7fd6a8	0.99936914
32	0x3f847b54	1.0350137
33	0x3f72dc6e	0.948676
34	0x3f6a4049	0.9150434
35	0x3f827cc9	1.0194331
36	0x3f67fbc7	0.90618557
37	0x3f84a477	1.0362691
38	0x3f7b1e7d	0.98093396
39	0x3f8a43b2	1.0801909
40	0x3f81e0cd	1.0146729
41	0x3f8123b5	1.0089022
42	0x3f851eee	1.0400064
43	0x3f7ecae5	0.9952834
44	0x3f650fb3	0.8947708
45	0x3f6cbdc1	0.9247704
46	0x3f707aa7	0.9393715
47	0x3f808b3f	1.0042495
48	0x3f80daa2	1.0066721
49	0x3f7afb90	0.98040104
50	0x3f847dab	1.0350851
51	0x3f662fcf	0.899167
52	0x3f89ed95	1.0775629
53	0x3f92949d	1.1451603
54	0x3f76db29	0.9642816
55	0x3f6821ef	0.9067678
56	0x3f70dd28	0.9408746
57	0x3f8d831d	1.1055638
58	0x3f83a2a0	1.0284004
59	0x3f5ae552	0.85506165
60	0x3f7a19cb	0.97695607
61	0x3f82c357	1.0215863
62	0x3f7c155f	0.9847011
63	0x3f8c0d38	1.0941534

feat_conv2.bn1.bias f4 [64]
0	0xbc21b5d9	-0.009870016
1	0xbe506e08	-0.20354474
2	0x3e8dce64	0.27696526
3	0xbe347a6e	-0.17624828
4	0xbda223b0	-0.07916963
5	0x3f0edcda	0.5580574
6	0xbd93c125	-0.07214574
7	0xbdaa4fa1	-0.08315969
8	0xbd3fc5c4	-0.046819463
9	0xbdc092ac	-0.094029754
10	0x3e3bf185	0.18353851
11	0x3e085569	0.13313831
12	0xbd5f8130	-0.054566562
13	0x3ddb5537	0.10709613
14	0x3deb30c5	0.114839114
15	0xbcb7e21f	-0.02244669
16	0x3e041456	0.12898383
17	0x3e7d3b06	0.24729547
18	0x3d86b65b	0.0657775
19	0x3d9b7a2b	0.07591661
20	0x3e2ba7e2	0.16763261
21	0xbcd8dd92	-0.02647284
22	0x3e116c48	0.14201462
23	0x3e8840ff	0.26612088
24	0xbd272554	-0.040807083
25	0xbdc8af57	-0.097990684
26	0x3e88e5cf	0.2673783
27	0x3e80ef0f	0.25182387
28	0xbe03029f	-0.12793969
29	0x3ce0b970	0.027432173
30	0xbe4d8738	-0.20071113
31	0x3dbd9d3e	0.09258507
32	0x3e8b4ba1	0.27206138
33	0xbd996f18	-0.074918926
34	0x3d66b26f	0.05632251
35	0xbbdf85eb	-0.006821384
36	0x3e07fba2	0.13279584
37	0x3ddc8c5c	0.10768959
38	0xbdaf49c4	-0.085589916
39	0x3e2a8069	0.16650547
40	0x3dda7afc	0.10667989
41	0x3e629568	0.22127306
42	0xbd71d23b	-0.059038382
43	0xbd96fc3b	-0.07372328
44	0xbe03cb26	-0.12870464
45	0xbe7727c6	-0.24136266
46	0xbdfd75e4	-0.123760015
47	0xbd57a6d3	-0.05264933
48	0x3e9bf73c	0.30462062
49	0x3eac88d0	0.3369813
50	0x3e1635c6	0.1466895
51	0xbc459855	-0.012060245
52	0xbd17c9d7	-0.037057724
53	0xbcaf3172	-0.021385882
54	0x3e12b3d0	0.14326406
55	0xbd589ee9	-0.052885924
56	0xbcd10b1d	-0.025517995
57	0x3c0414b9	0.008061581
58	0xbda6296b	-0.081133686
59	0xbe123170	-0.14276671
60	0xbdc3c932	-0.09559859
61	0x3e33dc0d	0.17564411
62	0x3e9b1c23	0.30294904
63	0x3e390d67	0.18071519

feat_conv2.fc2.weight f4 [64, 64, 1, 1]
0	0xbd0f500e	-0.034988455
1	0x3d30e933	0.043191146
2	0xbde4b562	-0.111674085
3	0xbcaad35f	-0.020852743
4	0xbdb5ea80	-0.08882618
5	0xbc5fbe61	-0.01365623
6	0xbdfcc1d1	-0.12341655
7	0xbd9b9c86	-0.07598214
8	0xbe3e1c3d	-0.1856546
9	0x3d9675f4	0.073467165
10	0xbb921a40	-0.0044586957
11	0xbe43d48c	-0.19124049
12	0x3e0e553f	0.13899706
13	0x3dc4dfce	0.09613
14	0xbd836b5a	-0.0641696
15	0x3c679231	0.014133976
16	0xbe1ae2ee	-0.1512563
17	0xbd453275	-0.048143823
18	0xbd2e65fe	-0.042577736
19	0x3d8fc6c0	0.070203304
20	0x3e09a411	0.13441493
21	0x3db6e8e2	0.089311376
22	0x3d2709ac	0.04078071
23	0x3e1aa67f	0.15102576
24	0xbe1ed6e3	-0.1551166
25	0x3ce09a7f	0.02741742
26	0x3c21a3ec	0.009865742
27	0xbc8ac366	-0.016938876
28	0xbdb44cdb	-0.088037215
29	0x3ca343c4	0.019929774
30	0xbd18f772	-0.037345357
31	0x3c3ab360	0.011395305
32	0xbd858a26	-0.0652049
33	0xbe57d0ba	-0.21075717
34	0xbd90e348	-0.070746005
35	0x3dde207e	0.10846041
36	0xbe2becb1	-0.1678951
37	0x3cd1320d	0.025536561
38	0xbc854b13	-0.01627115
39	0x3d0d74f6	0.03453537
40	0x3dd27814	0.10276809
41	0x3e0a3aab	0.13498943
42	0xbe818591	-0.25297216
43	0xbe46cfd4	-0.19415218
44	0x3e3d5b69	0.18491901
45	0xbdd486ec	-0.10377297
46	0xbd8cbdb9	-0.06872124
47	0x3d700b6f	0.058604654
48	0xbd2315d5	-0.039815743
49	0xbdc9e829	-0.09858734
50	0xbd804ac2	-0.06264259
51	0x3e0ab66b	0.1354615
52	0x3cfe03fb	0.031007757
53	0xbe4bfb13	-0.19919996
54	0xbe59c611	-0.21266963
55	0x3c5e81f0	0.013580784
56	0x3e2bfbd6	0.16795287
57	0x3c3cfda1	0.011535079
58	0x3e596e5c	0.21233505
59	0xbe6650ef	-0.22491811
60	0xbd2b66d7	-0.041846123
61	0xbd98f71f	-0.074690096
62	0x3db474a0	0.08811307
63	0xbdb78c45	-0.08962301
64	0x3d0308ef	0.03199094
65	0xbbe16c5e	-0.0068793735
66	0xbc386999	-0.011255645
67	0x3e07fae0	0.13279295
68	0xbc878a79	-0.016545521
69	0xbc8f9cd4	-0.017530836
70	0x3d0e947e	0.034809582
71	0xbdc0bc5f	-0.09410929
72	0x3dca192a	0.09868081
73	0xbd129b48	-0.03579262
74	0xbe377374	-0.17915136
75	0x3d6bdefa	0.057585694
76	0x3cd080ba	0.025452007
77	0xbda8b2cb	-0.08237227
78	0xbdbeb0c6	-0.093110606
79	0xbe03b17a	-0.1286067
80	0x3dfc5256	0.12320392
81	0x3cd5d85d	0.026104147
82	0xbd0f3835	-0.034965713
83	0x3deb543b	0.11490675
84	0xbdd7ecc4	-0.10543206
85	0x3c9307c4	0.017948039
86	0xbe1b86fa	-0.15188208
87	0x3d9ccde3	0.07656457
88	0x3e7003dd	0.23438974
89	0xbda3824b	-0.07983836
90	0x3e9b29f8	0.30305457
91	0xbd81004d	-0.062988855
92	0x3d5f8633	0.05457134
93	0xbd1f951d	-0.038960565
94	0x3b7589f5	0.0037466262
95	0x3e0c8986	0.13724336
96	0x3dafb6d0	0.085797906
97	0xbcb43a68	-0.022000507
98	0x3d0ec274	0.034853414
99	0x3e0639b8	0.13107955
100	0x3d4de932	0.05027122
101	0xbdad04dd	-0.08448193
102	0xbd879b13	-0.06621375
103	0x3c446dcc	0.011989068
104	0xbcd7950b	-0.026316186
105	0xbd974835	-0.07386819
106	0x3cb208c0	0.021732688
107	0xbcddc89e	-0.0270732
108	0x3c3691b0	0.011143133
109	0x3cc80119	0.024414586
110	0xbe060469	-0.1308762
111	0x3e8a152e	0.26969284
112	0xbdc31923	-0.09526279
113	0xbdea1300	-0.11429405
114	0xbd387242	-0.04503084
115	0xbd769c98	-0.060207933
116	0x3e01b174	0.12665349
117	0xbe573b6b	-0.2101876
118	0xbce803be	-0.028322097
119	0xbe0e1d01	-0.13878252
120	0xbdc2eff1	-0.095184214
121	0x3c88525e	0.016640838
122	0xbc406595	-0.011742969
123	0xbd9a056a	-0.07520564
124	0x3d725b9a	0.05916939
125	0xbdfba7e1	-0.1228788
126	0x3d552731	0.05203933
127	0x3dc31898	0.09526175
128	0xbd5674b5	-0.052357394
129	0x3dcc1437	0.09964793
130	0xbe69a210	-0.22815728
131	0xbdf0a2f3	-0.1174983
132	0x3d8b1e73	0.06792917
133	0xbe511cd3	-0.20421152
134	0x3d04429b	0.032290082
135	0xbdb25d5f	-0.087092154
136	0x3c822e0a	0.015891094
137	0x3dec01c8	0.11523777
138	0xbd00cb07	-0.031443622
139	0xbd79d8a2	-0.060997613
140	0xbe21a060	-0.15783834
141	0x3de1a262	0.110173
142	0x3d8f32bc	0.06992099
143	0x3d83eec8	0.06442028
144	0x3da77836	0.08177225
145	0xbdc43b65	-0.09581641
146	0x3bca4986	0.0061733155
147	0xbcf8ea94	-0.030385293
148	0xbe059286	-0.13044176
149	0xbbe4546b	-0.006968071
150	0xbde28873	-0.11061182
151	0x3d92cbc6	0.07167773
152	0x3db78761	0.08961368
153	0xbe3959c2	-0.18100646
154	0x3c535da0	0.01290074
155	0x3e206c85	0.15666397
156	0xbd3a8ec1	-0.045546297
157	0x3d713b9f	0.05889475
158	0x3d404039	0.046936247
159	0xbdb94864	-0.090470105
160	0xbc3956f0	-0.011312231
161	0xbc8ee39b	-0.017442515
162	0xbd7ea3ea	-0.06216804
163	0xbdea7e15	-0.114498295
164	0x3d87279a	0.0659935
165	0x3cacc62b	0.021090588
166	0xbd1b5ad0	-0.037928402
167	0xbdbeeeca	-0.09322889
168	0xbd529600	-0.051412582
169	0xbe076f8e	-0.13226148
170	0x3dba3424	0.09091976
171	0xbd757a56	-0.05993112
172	0x3db7ce8d	0.08974943
173	0x3c99d618	0.018778846
174	0xbdf62c82	-0.12020208
175	0xbdc43fe1	-0.095824964
176	0xbba5da1d	-0.0050614015
177	0xbdd8dc49	-0.10588891
178	0xbdab23e9	-0.08356459
179	0x3d160e14	0.03663452
180	0xbd8eb94b	-0.069689356
181	0xbe44341a	-0.191605
182	0x3e6f7411	0.2338412
183	0xbd15c314	-0.036562994
184	0xbdd311bf	-0.10306119
185	0xbd956958	-0.07295483
186	0x3e46254a	0.19350162
187	0xbc0c6f8f	-0.0085715195
188	0x3b064d5e	0.0020492892
189	0x3e820737	0.2539613
190	0x3e035629	0.12825836
191	0xbdc0aa50	-0.094074845
192	0xbd0eb3b9	-0.034839366
193	0xbd0dd117	-0.03462323
194	0xbe2f7771	-0.17135407
195	0xbdfa7fdc	-0.122314185
196	0x3d976d88	0.07393938
197	0xbd84ef78	-0.064909875
198	0xbba57fee	-0.005050651
199	0xbd94d759	-0.07267637
200	0xbe50634a	-0.20350376
201	0x3d9108e0	0.07081771
202	0xbccdbd9f	-0.025114832
203	0xbe864d18	-0.26230693
204	0xbdbfb536	-0.09360735
205	0xbc720515	-0.014771719
206	0xbd7de227	-0.061983254
207	0x3d0b5567	0.034016993
208	0xbd45a0ad	-0.048248935
209	0xbe021cd5	-0.12706311
210	0xbd964964	-0.07338217
211	0xbdc86ae8	-0.09786016
212	0xbce3ec12	-0.027822528
213	0x3e2015a1	0.15633251
214	0xbdd37e60	-0.103268385
215	0x3e0b5785	0.13607605
216	0x3e96b186	0.29432315
217	0x3d1ee1ec	0.038789675
218	0x3da9a89f	0.08284115
219	0x3b637793	0.0034708723
220	0x3daff5b8	0.08591789
221	0xbe1f4e91	-0.15557314
222	0x3d86430c	0.06555757
223	0x3de3bc64	0.11119917
224	0xbe72b899	-0.23703231
225	0xbc860d80	-0.01636386
226	0x3d5fd7f4	0.05464931
227	0x3e0772b9	0.13227357
228	0xbe09ebb0	-0.13468814
229	0xbda0a16a	-0.07843287
230	0x3cf24965	0.029576013
231	0xbdb876a4	-0.09007004
232	0xbe62c18f	-0.22144149
233	0x3d360591	0.044438902
234	0xbc1cc7b3	-0.009569096
235	0xbdb543e1	-0.088508375
236	0x3da5cea8	0.08096057
237	0x3c8341b9	0.01602255
238	0xbdd72205	-0.105045356
239	0xbe4214bd	-0.18953224
240	0xbef66795	-0.48125902
241	0x3c727bae	0.014799995
242	0x3da7dd74	0.08196536
243	0xbd5fec26	-0.054668568
244	0xbdd9efa4	-0.10641411
245	0xbd5d18a7	-0.05397859
246	0xbd9ab04f	-0.075531594
247	0xbd8e39f7	-0.0694465
248	0xbe25edb7	-0.16203962
249	0xbc638b35	-0.01388817
250	0xbe32bea1	-0.17455532
251	0x3d9c9a1c	0.076465815
252	0xbcc83109	-0.024437444
253	0xbd38516f	-0.044999536
254	0xbc8e50ed	-0.017372573
255	0xbe245786	-0.16049013

feat_conv2.bn2.weight f4 [64]
0	0x3f83a8fc	1.0285945
1	0x3f896b7c	1.0735927
2	0x3f8ab545	1.0836569
3	0x3f8d97b6	1.1061924
4	0x3f67255e	0.9029139
5	0x3f80b779	1.0055991
6	0x3f824023	1.0175823
7	0x3f70ac6d	0.940131
8	0x3f85358b	1.0406965
9	0x3f80166a	1.000684
10	0x3f6c4b43	0.9230234
11	0x3f84858f	1.0353259
12	0x3f7d2d8b	0.9889762
13	0x3f728381	0.9473191
14	0x3f8919d8	1.0711012
15	0x3f86313a	1.0483773
16	0x3f770136	0.9648622
17	0x3f767c46	0.96283376
18	0x3f8337bd	1.0251385
19	0x3f77c553	0.9678547
20	0x3f847dfe	1.035095
21	0x3f7d2322	0.98881733
22	0x3f70d3d9	0.94073254
23	0x3f7fe012	0.9995128
24	0x3f7ac0bc	0.9795034
25	0x3f7099c1	0.9398461
26	0x3f877837	1.0583562
27	0x3f6b8c2c	0.9201076
28	0x3f87bfc8	1.0605402
29	0x3f77edd2	0.9684726
30	0x3f736486	0.9507526
31	0x3f68aa19	0.9088455
32	0x3f696107	0.91163677
33	0x3f84a8eb	1.036405
34	0x3f98188e	1.1882493
35	0x3f676723	0.9039175
36	0x3f60c093	0.87793845
37	0x3f868f1a	1.0512421
38	0x3f7d827d	0.99027234
39	0x3f817bf6	1.0115955
40	0x3f72e3ec	0.9487903
41	0x3f77d646	0.9681133
42	0x3f8f0ef0	1.1176434
43	0x3f67c3da	0.9053322
44	0x3f7a5f04	0.9780123
45	0x3f786f20	0.97044563
46	0x3f7c023f	0.9844093
47	0x3f6f9ad5	0.9359563
48	0x3f835238	1.0259466
49	0x3f86e0cc	1.0537353
50	0x3f828f19	1.019992
51	0x3f8ea5a6	1.1144302
52	0x3f8021e4	1.0010343
53	0x3f727150	0.9470415
54	0x3f87481e	1.0568883
55	0x3f6e48cf	0.9307985
56	0x3f73ca06	0.9523014
57	0x3f7ba6fd	0.9830168
58	0x3f70a06f	0.939948
59	0x3f7e5d07	0.993607
60	0x3f7efc59	0.996038
61	0x3f8c1e25	1.0946699
62	0x3f83bfc3	1.0292896
63	0x3f855f52	1.0419714

feat_conv2.bn2.bias f4 [64]
0	0xbe9475f3	-0.28996238
1	0x3cece31c	0.028916888
2	0x3d6ee0d2	0.058319874
3	0x3d826f40	0.063688755
4	0xbcb72768	-0.022357658
5	0x3ebcd35a	0.36879998
6	0x3ec620c3	0.3869687
7	0xbe145d5e	-0.14488742
8	0xbecb9d00	-0.3976822
9	0x3ea1a1ab	0.31568655
10	0x3ec13bde	0.37740988
11	0xbe77d3aa	-0.24201837
12	0xbde17eda	-0.11010523
13	0x3d21d688	0.039511234
14	0xbd41465a	-0.047186233
15	0xbe2a8aba	-0.16654482
16	0xbddf928c	-0.109166235
17	0x3e6f0091	0.2334006
18	0xbd9770e7	-0.07394581
19	0x3dac602f	0.08416783
20	0xbccb49e8	-0.024815515
21	0x3dc031e6	0.09384517
22	0xbd05cdd6	-0.032667004
23	0xbd9edb7e	-0.077567086
24	0x3e8a6aad	0.27034512
25	0x3e127352	0.14301804
26	0x3d7f6663	0.062353503
27	0xbd03b7d4	-0.032157734
28	0x3c38bbca	0.011275241
29	0x3e945318	0.28969646
30	0x3e7b5cf3	0.24547176
31	0x3ea7e041	0.3278828
32	0xbc521ac3	-0.012823763
33	0x3ea03eeb	0.31298003
34	0x3ddaec78	0.10689634
35	0xbdbc5399	-0.091956325
36	0x3d0e95e9	0.034810934
37	0x3e686896	0.22696146
38	0x3d83335c	0.064062804
39	0x3d9cead3	0.07661977
40	0x3c80ddd5	0.015730778
41	0xbca51487	-0.02015139
42	0xbe13c6f4	-0.14431363
43	0x3cf2822e	0.02960309
44	0x3e05b768	0.13058245
45	0x3dda6161	0.10663105
46	0x3e4b5d00	0.19859695
47	0x3d9df232	0.07712211
48	0x3d4eaa67	0.050455477
49	0x3d0c1d3e	0.034207575
50	0x3db27a60	0.087147474
51	0x3c338021	0.010955841
52	0xbe4fc69f	-0.20290612
53	0x3e18c02e	0.1491706
54	0x3dcbaa76	0.09944622
55	0x3d0563c4	0.032565847
56	0xbe112014	-0.14172393
57	0x3cbb3057	0.022850199
58	0xbcba146d	-0.022714818
59	0xbdbfc4d9	-0.093637176
60	0xbd50c903	-0.05097295
61	0x3e6bb820	0.23019457
62	0x3de8caf8	0.11366838
63	0x3be7b93f	0.0070716436

feat_conv2.fc3.weight f4 [64, 64, 1, 1]
0	0x3e3093bf	0.1724386
1	0xbc894786	-0.016757738
2	0x3da79889	0.08183391
3	0x3d7b6459	0.061374996
4	0x3c8889e1	0.016667308
5	0xbc4fcd32	-0.0126832
6	0x3bf23134	0.0073911194
7	0x3cdce403	0.026964193
8	0x3e4a1744	0.19735438
9	0x3e107a7f	0.14109229
10	0x3dc33cb6	0.09533064
11	0x3d64486b	0.055733126
12	0xbd078608	-0.033086807
13	0xbe8f2998	-0.2796142
14	0x3e025b7b	0.1273021
15	0x3d0aad96	0.03385695
16	0xbc4c9bef	-0.012488349
17	0xbe57c123	-0.2106977
18	0x3c878ef9	0.016547667
19	0xbd6330e5	-0.05546655
20	0x3e788d7c	0.24272722
21	0x3d365a90	0.04451996
22	0x3ca13ba5	0.019681761
23	0xbdca9726	-0.098921105
24	0xbd596528	-0.053074986
25	0xbd223380	-0.039599895
26	0x3c96b071	0.01839468
27	0xbd68598a	-0.056726016
28	0x3d970535	0.0737404
29	0xbe135449	-0.14387621
30	0xbd5ed1c4	-0.054399267
31	0x3e2a0cb1	0.16606404
32	0xbc42f5c1	-0.011899413
33	0xbdb4a9d5	-0.088214554
34	0xbe581b08	-0.21104062
35	0xbd0cb5b4	-0.034352973
36	0xbe0477b2	-0.12936285
37	0x3de97459	0.11399145
38	0x3d5d7b7e	0.05407285
39	0xbc883107	-0.01662494
40	0x3de2a56b	0.11066707
41	0xbcef8cc5	-0.029241929
42	0xbd8ad17e	-0.06778239
43	0x3cf5a134	0.029984094
44	0x3bc85f47	0.0061148736
45	0x3b928ed0	0.004472591
46	0x3d0ea955	0.034829456
47	0x3dd03d39	0.10167927
48	0x3ded0687	0.115735106
49	0xbe5ed5c2	-0.2176123
50	0xbc85f9e8	-0.016354516
51	0xbe2a86c9	-0.16652979
52	0xbe0e51d0	-0.13898396
53	0x3dd766a4	0.10517624
54	0xbdae20b7	-0.085023336
55	0xbe0082aa	-0.12549844
56	0x3c4b4a50	0.012407854
57	0xbe02d561	-0.1277671
58	0xbdb28881	-0.08717442
59	0x3ce88316	0.02838282
60	0xbca0eeb2	-0.019645069
61	0xbcd60eb8	-0.026130065
62	0xbe3c45d5	-0.18386014
63	0xbe5d07f6	-0.21585068
64	0x3e2a0dcb	0.16606824
65	0xbde141b3	-0.10998859
66	0x3dcb880a	0.09938057
67	0x3ce75965	0.028240869
68	0xbe124be4	-0.14286762
69	0xbe4b480a	-0.198517
70	0xbabd7582	-0.0014454576
71	0xbd583a8e	-0.052790217
72	0x3d71d61b	0.059042078
73	0xbde0948a	-0.109658316
74	0xbd3c9f98	-0.046050638
75	0x3e4e715c	0.2016043
76	0x3dd39d98	0.10332793
77	0xbdab46c1	-0.083631046
78	0xbe0fc259	-0.14038981
79	0x3e2214b2	0.15828207
80	0x3d6cfece	0.05786019
81	0xbe237cd2	-0.15965584
82	0x3e9f6f38	0.3113954
83	0xbdb21ad2	-0.08696522
84	0xbda915cb	-0.0825611
85	0xbd92f5b7	-0.07175773
86	0xbc75d686	-0.01500476
87	0xbdb171a5	-0.08664254
88	0xbd87e048	-0.06634575
89	0xbe3c5bff	-0.18394469
90	0xbc29f3b2	-0.010373043
91	0x3d9ed834	0.07756081
92	0x3da140b6	0.07873671
93	0xbdacadd0	-0.084315896
94	0xbcdc2e04	-0.02687741
95	0xbd952c59	-0.07283849
96	0xbdb611bd	-0.08890102
97	0xbd1a5681	-0.037680153
98	0x3e2cf78a	0.16891304
99	0xbccedce1	-0.025251808
100	0xbd4cd8ac	-0.050011322
101	0xbd193392	-0.037402697
102	0x3cc24b7c	0.023717634
103	0x3c594fdc	0.013263669
104	0x3e49e6d1	0.19716956
105	0xbd53e368	-0.051730543
106	0xbe817cf4	-0.25290644
107	0xbd11958d	-0.035543013
108	0x3c02f619	0.007993245
109	0xbdaf58f6	-0.0856189
110	0x3d085b0c	0.033289954
111	0x3d95435f	0.07288241
112	0x3dfe1391	0.12406076
113	0xbd8eb76e	-0.0696858
114	0x3c685e7a	0.014182681
115	0x3da83521	0.082132585
116	0x3ba08155	0.00489823
117	0x3e206a94	0.15665656
118	0xbd9ceb55	-0.076620735
119	0xbe212f3b	-0.15740673
120	0xbdd3ff10	-0.10351384
121	0xbbbcd222	-0.0057623545
122	0xbe2441c1	-0.16040708
123	0x3daef673	0.085431
124	0xbe59fade	-0.21287104
125	0xbc8e44e9	-0.017366843
126	0x3ca7ed5c	0.020498924
127	0xbcdfd7af	-0.027324526
128	0xbe024405	-0.1272126
129	0xbdee2e72	-0.116299525
130	0xbe2f3db9	-0.17113389
131	0x3e424394	0.18971092
132	0x3cc8b46b	0.024500092
133	0x3c0bf54d	0.008542371
134	0xbbcd236f	-0.0062603275
135	0xbdd58a5c	-0.104267806
136	0xbd15a9f3	-0.03653903
137	0xbd6a210d	-0.057160426
138	0x3dbb8e0b	0.09157952
139	0x3dcfb5f8	0.1014213
140	0x3e5bc15b	0.21460478
141	0xbd6911fe	-0.056901924
142	0xbdf408f4	-0.1191577
143	0x3e0b5cee	0.13609669
144	0x3d85ebdd	0.06539128
145	0xbe228b5c	-0.15873474
146	0x3dc5808c	0.09643659
147	0xbc9a239e	-0.018815812
148	0x3e2eedd4	0.17082912
149	0xbe16989c	-0.14706653
150	0x3c3a0d13	0.011355656
151	0xbdc4841c	-0.0959551
152	0xbe3b5978	-0.18295848
153	0xbdfbd0ca	-0.12295683
154	0xbe70818f	-0.23486923
155	0xbd87b5b9	-0.06626458
156	0x3c5a2724	0.013314996
157	0xbdcd0a6d	-0.10011754
158	0x3c6391e7	0.013889766
159	0xbb377991	-0.0027996043
160	0x3b2714ee	0.0025494653
161	0xbe0d9bc8	-0.13828957
162	0xbe399355	-0.18122609
163	0xbd9244d7	-0.071420364
164	0xbdc4074d	-0.09571705
165	0xbe77aa63	-0.24186091
166	0xbc5a4251	-0.013321475
167	0x3ccdb1ed	0.025109256
168	0xbd2127bd	-0.039344538
169	0xbd8dfd2e	-0.06933056
170	0xbe546935	-0.20743258
171	0xbdccb27d	-0.099949814
172	0xbd367f76	-0.04455515
173	0x3ce8c642	0.02841485
174	0xbe3b065a	-0.18264142
175	0x3d72637d	0.05917691
176	0x3d254924	0.040352955
177	0xbe3fdc7d	-0.18736453
178	0x3d768fe2	0.06019581
179	0x3d1fb5ed	0.038991857
180	0x3d26f83d	0.040764082
181	0x3e374a3a	0.17899409
182	0x3c4d9c48	0.012549467
183	0xbd9f4987	-0.07777696
184	0xbe24551d	-0.16048093
185	0xbd3ff98a	-0.04686884
186	0xbe46bb14	-0.19407302
187	0xbdcb1709	-0.09916503
188	0x3d5d1272	0.05397267
189	0xbdca814b	-0.09887942
190	0xbd865ea1	-0.06561018
191	0xbd1c0547	-0.03809097
192	0xbdf3b55d	-0.11899827
193	0xbd0434f8	-0.032277077
194	0x3d690188	0.056886226
195	0xbd3a532e	-0.045489483
196	0xbdef3161	-0.1167934
197	0x3cec6654	0.028857388
198	0xbdd9b79f	-0.10630726
199	0x3db8a8bf	0.09016561
200	0xbe03ad2f	-0.12859033
201	0xbd9a10f4	-0.07522765
202	0x3d97c09d	0.07409785
203	0x3dbb3385	0.09140686
204	0x3e245500	0.1604805
205	0xbd05d8f1	-0.032677595
206	0xbdc1108f	-0.094269864
207	0xbdbbf1b5	-0.09176961
208	0xbe793d2b	-0.2433974
209	0x3d36cf35	0.0446312
210	0x3ceb0e3c	0.02869331
211	0xbe4cc3b1	-0.19996525
212	0xbdc4fb8c	-0.09618291
213	0xbe1faea8	-0.1559397
214	0x3dd8ec83	0.10591986
215	0xbcdcf06b	-0.026970109
216	0xbb3a153a	-0.0028394
217	0x3d85bd83	0.06530287
218	0x3c768fe5	0.015048956
219	0xbe0ee06b	-0.13952796
220	0x3cf6296f	0.030049054
221	0xbda983a5	-0.08277062
222	0xbdb91a57	-0.09038227
223	0xbe2f5109	-0.17120756
224	0x3e0e47f0	0.1389463
225	0xbce52a49	-0.027974265
226	0xbe2b7234	-0.16742784
227	0xbc75980f	-0.014989867
228	0x3d7f10f9	0.062272046
229	0xbd436c84	-0.04771091
230	0xbde8fe42	-0.11376621
231	0xbcbc33dd	-0.02297395
232	0x3e4422b6	0.19153866
233	0x3d0b5120	0.034012914
234	0x3df22c7c	0.11824891
235	0x3d9fa356	0.07794826
236	0x3ce14385	0.027498016
237	0x3c5267e1	0.0128421495
238	0x3df145cb	0.1178089
239	0x3de9e3b8	0.11420387
240	0x3d88cf65	0.06680182
241	0x3e30720f	0.1723101
242	0xbe15dc85	-0.14634903
243	0x3de38318	0.111089885
244	0xbdca1cb9	-0.0986876
245	0xbe493231	-0.19648053
246	0x3c83db10	0.016095668
247	0xbe1a9ea4	-0.15099579
248	0xbc9ea891	-0.019367488
249	0xbdc0aa97	-0.094075374
250	0x3e049a52	0.12949494
251	0xbdb49e8d	-0.08819304
252	0xbdfb2189	-0.12262256
253	0x3d4cc761	0.04999483
254	0x3e00d9c7	0.12583075
255	0xbe28d39f	-0.16486977
